save_sgpr/sgpr_current.model (torch, 2267 bytes, 2 tensors)

Xu f4 [50, 2]
0	0xbf14c304	-0.5811007
1	0xbfa7d470	-1.3111706
2	0x3f19d86a	0.60095847
3	0xc0173ca2	-2.3630757
4	0xbf11ba3e	-0.5692481
5	0xbf01d1b3	-0.507106
6	0x3f360ecb	0.7111632
7	0xbe0062ff	-0.12537764
8	0x3d3516cc	0.044211194
9	0xbf452a77	-0.7701792
10	0x3e94a3a5	0.290311
11	0xbf910aa3	-1.1331371
12	0xbf0d93b6	-0.55303514
13	0x3eceed6e	0.4041552
14	0x3ee776bd	0.45207778
15	0x3eb3ebe2	0.35140902
16	0x3f3b7dfd	0.7323912
17	0xbf8ff68f	-1.1247119
18	0x3e9f650c	0.3113178
19	0xbeb57b77	-0.3544576
20	0xbeeb93cd	-0.460112
21	0x3ef75dda	0.4831379
22	0x3f10d374	0.5657265
23	0x3f0a8452	0.54108155
24	0xbf1bdc09	-0.6088262
25	0xbf0eef88	-0.55834246
26	0x3e0484da	0.12941304
27	0xbe4ec4b3	-0.20192222
28	0x3dfcdde4	0.1234701
29	0x3ef0c125	0.47022358
30	0xbf0d0dcb	-0.5509917
31	0x3f77794c	0.9666946
32	0x3f0d1037	0.55102867
33	0x3ecebfea	0.40380794
34	0xbf194f1d	-0.5988634
35	0x3db818d3	0.0898911
36	0x3e419300	0.18903732
37	0x3d4b1aec	0.04958622
38	0x3f0d09c5	0.5509303
39	0x3f2244be	0.6338614
40	0xbc964e60	-0.018347919
41	0x3f4e157d	0.8050154
42	0xbe2a1045	-0.16607769
43	0x3f68a2d5	0.9087346
44	0x3eb453c8	0.3522017
45	0x3f50160a	0.8128363
46	0xbe5dfa20	-0.21677446
47	0x3fae4ed8	1.3617811
48	0xbc2bc456	-0.010483822
49	0x3f88fb49	1.0701686
50	0xbced13f7	-0.028940184
51	0xbf749b89	-0.9554983
52	0x3f795092	0.97388566
53	0xbf98c5b8	-1.1935339
54	0x3f9fbef5	1.248015
55	0xbfd49aa5	-1.6609694
56	0x3f8001a6	1.0000503
57	0xbfbf8fe5	-1.4965788
58	0x3f33b1f2	0.701934
59	0xbfa2e264	-1.2725339
60	0x3f8560d0	1.042017
61	0xbfade40c	-1.3585219
62	0x3f805eb6	1.0028903
63	0xbf81ed34	-1.0150514
64	0xbdc145ad	-0.09437118
65	0xbd0b4efb	-0.03401087
66	0x3f783e3d	0.9696997
67	0xbf2fc044	-0.6865275
68	0x3f554210	0.8330393
69	0xbf0a7319	-0.54081875
70	0x3f851a39	1.0398628
71	0xbeaac77b	-0.33355317
72	0x3f70a695	0.94004184
73	0x3eed13e7	0.46304247
74	0x3f53c486	0.82721746
75	0x3fbd5b17	1.4793423
76	0x3f234698	0.6377959
77	0xbf10a45e	-0.56500804
78	0x3f768f2e	0.96312225
79	0xbf58a3a9	-0.84624726
80	0x3f81ee9c	1.0150943
81	0x3dc10107	0.09424024
82	0x3f19c477	0.60065407
83	0xbddb431c	-0.107061595
84	0x3f82dcf0	1.0223675
85	0x3e98ec7e	0.2986793
86	0x3f94a082	1.1611483
87	0xbf309e0f	-0.6899118
88	0x3f3dfc24	0.7421286
89	0x3f3a23e7	0.7271103
90	0xbdc31832	-0.09526099
91	0x3f3f4242	0.74710476
92	0x3f36ac17	0.7135634
93	0x3f18fa4b	0.59756917
94	0xbc60cdb0	-0.013720915
95	0x3e564f93	0.20928793
96	0x3f6d6ab7	0.9274096
97	0xbced7c0a	-0.02898981
98	0x39370c7e	0.00017456894
99	0x3f988979	1.1916953

kernel.lengthscale_unconstrained f4 [2]
0	0x3ea228b3	0.31671676
1	0xbfcb30f6	-1.5874317
