save_sgpr/sgpr_state.model (torch, 2267 bytes, 2 tensors)

Xu f4 [50, 2]
00000000: 828b d9be ca27 fabf 276c db3e 0df4 62bf
00000010: 6e24 f1be dc7f cebf 2c61 e23e dbea a3bf
00000020: 4d9b e43e 6c3a 57bf dc9c f0be 7b64 6dbf
00000030: bb2a f83e 58e4 d8bd c5de 42be cf5a 6fbf
00000040: 8294 ebbe 741e 37bf d3f2 20be d3b2 6bbf
00000050: 138f a03e 387b 6ebe ff02 0bbf 2f8c 67bf
00000060: a353 f23e 43f9 a93e 7ab4 033f 4a31 263f
00000070: 92a3 eabe 2474 703e 50a7 ed3e 1d65 733f
00000080: c5ee eebe 0fde 213f a788 f33e d2c1 383f
00000090: dfb1 d23e 4329 023f 3eeb e8be 9048 763f
000000a0: 884a f83e 3aef 813f 6c23 bdbe 46c8 7d3f
000000b0: 6926 be3e 36a8 b93f de38 37bf c24e 953f
000000c0: eab2 283f e57b be3f fe10 6b3f 90a3 efbf
000000d0: 6d29 af3f bc52 6cbf 2477 bb3e 0c6e dbbf
000000e0: 6723 883e a392 f2be f910 6f3f 66af b8bf
000000f0: e176 b53f 9570 bcbf a426 923f 3402 6bbf
00000100: 815d 6a3f 7795 e6be 6a94 663f 56cd a4bf
00000110: 4b92 363f facb 00be dc8b 0c3f ecf4 7ebf
00000120: cd59 793f b34b 8ebe 8e5e 023f ef90 8b3e
00000130: 5c96 7d3f a85f fe3d 55a3 993f 9a43 fcbe
00000140: 0553 743f aed3 56bd 6202 6d3f 20c9 eb3e
00000150: a9e9 833f 4b34 713f 8180 ffbd 862d 0d3d
00000160: 4c83 a63f 3d52 863f e957 a03f 387b 133f
00000170: f787 133f 2710 773f fa4d 943f 1674 c73f
00000180: 2a9b 3f3f 1be6 303f 3b5c 3f3f 6e2b 813f
-0.4248925 -1.9543393 0.4285595 -0.8865364 -0.47098106 -1.613277 0.4421476 -1.2806047
0.44649735 -0.8407352 -0.46994674 -0.92731446 0.484701 -0.10590428 -0.19030292 -0.9349794
-0.4601174 -0.7153084 -0.1571763 -0.9206974 0.31359157 -0.23289192 -0.54301447 -0.9044828
0.47329435 0.33197984 0.5144726 0.6491896 -0.4582792 0.23481804 0.46416712 0.9507616
-0.46666542 0.6322946 0.47565195 0.72170746 0.4115133 0.5084421 -0.45491976 0.9620447
0.48494363 1.0151131 -0.36941087 0.9913372 0.3713868 1.4504459 -0.7157115 1.166466
0.65898 1.488156 0.91822803 -1.872179 1.3684517 -0.9231374 0.36614335 -1.7142959
0.2658951 -0.473775 0.93385273 -1.4428527 1.4176904 -1.4721857 1.1418042 -0.91800237
0.91548926 -0.45035908 0.9007021 -1.2875164 0.71316975 -0.12577811 0.5490091 -0.9959247
0.9740265 -0.2779213 0.5092553 0.27259013 0.99057555 0.12420589 1.200297 -0.49270326
0.9543918 -0.052447967 0.9258176 0.46051884 1.0305682 0.9422042 -0.12475682 0.034467243
1.3008819 1.0493847 1.2526828 0.5760989 0.5762934 0.9650902 1.1586297 1.5582302
0.74846137 0.69101113 0.7475011 1.0091379

kernel.lengthscale_unconstrained f4 [2]
00000000: f292 f03d 1593 68bf
0.117467776 -0.9084943
